…
       17, 18, 19, 20, 21, 22, 23, 24, 25, 26, 27, 28, 29, 30, 31, 32, 33,
       34, 35, 36], dtype=uint8), array([   1,    8,   29,   42,  101,  172,  228,  308,  429,  575,  694,
        862, 1065, 1145, 1285, 1452, 1512, 1575, 1664, 1569, 1461, 1386,
       1260, 1093,  923,  872,  663,  507,  360,  271,  194,  126,   86,
         49,   25,    6,    2]))
One-hot encoded label size: (24000, 37) (6000, 37)
Model: "sequential"
_________________________________________________________________
Layer (type)                 Output Shape              Param #   
=================================================================
conv2d (Conv2D)              (None, 38, 166, 32)       320       
_________________________________________________________________
batch_normalization (BatchNo (None, 38, 166, 32)       128       
_________________________________________________________________
conv2d_1 (Conv2D)            (None, 36, 164, 32)       9248      
_________________________________________________________________
batch_normalization_1 (Batch (None, 36, 164, 32)       128       
_________________________________________________________________
max_pooling2d (MaxPooling2D) (None, 18, 82, 32)        0         
_________________________________________________________________
conv2d_2 (Conv2D)            (None, 16, 80, 64)        18496     
_________________________________________________________________
batch_normalization_2 (Batch (None, 16, 80, 64)        256       
_________________________________________________________________
conv2d_3 (Conv2D)            (None, 14, 78, 64)        36928     
_________________________________________________________________
batch_normalization_3 (Batch (None, 14, 78, 64)        256       
_________________________________________________________________
max_pooling2d_1 (MaxPooling2 (None, 7, 39, 64)         0         
_________________________________________________________________
conv2d_4 (Conv2D)            (None, 5, 37, 128)        73856     
_________________________________________________________________
batch_normalization_4 (Batch (None, 5, 37, 128)        512       
_________________________________________________________________
conv2d_5 (Conv2D)            (None, 3, 35, 128)        147584    
_________________________________________________________________
batch_normalization_5 (Batch (None, 3, 35, 128)        512       
_________________________________________________________________
max_pooling2d_2 (MaxPooling2 (None, 1, 17, 128)        0         
_________________________________________________________________
flatten (Flatten)            (None, 2176)              0         
_________________________________________________________________
dense (Dense)                (None, 100)               217700    
_________________________________________________________________
dropout (Dropout)            (None, 100)               0         
_________________________________________________________________
dense_1 (Dense)              (None, 74)                7474      
_________________________________________________________________
dropout_1 (Dropout)          (None, 74)                0         
_________________________________________________________________
dense_2 (Dense)              (None, 37)                2775      
=================================================================
Total params: 516,173
Trainable params: 515,277
Non-trainable params: 896
_________________________________________________________________
None
Epoch 1/50
  1/480 [..............................] - ETA: 0s - loss: 5.2402 - accuracy: 0.0200 
…
